…
2024-11-18 21:15:40,822 - root - INFO - Getting file stats from /data/valid/2016.h5
2024-11-18 21:15:40,823 - root - INFO - Number of samples per year: 1460
2024-11-18 21:15:40,823 - root - INFO - Found data at path /data/valid. Number of examples: 2920. Image Shape: 360 x 720 x 20
2024-11-18 21:15:40,823 - root - INFO - Using shards of size 730 per rank
2024-11-18 21:15:40,975 - root - INFO - Getting file stats from /data/valid/2016.h5
2024-11-18 21:15:59,412 - root - INFO - rank 0, data loader initialized
2024-11-18 21:16:04,277 - root - INFO - DistributedDataParallel(
  (module): VisionTransformer(
    (patch_embed): PatchEmbed(
      (proj): Conv2d(20, 1024, kernel_size=(8, 8), stride=(8, 8))
    )
    (pos_drop): Dropout(p=0.0, inplace=False)
    (blocks): ModuleList(
      (0-11): 12 x Block(
        (drop_path): Identity()
        (norm1): LayerNorm((1024,), eps=1e-06, elementwise_affine=True)
        (norm2): LayerNorm((1024,), eps=1e-06, elementwise_affine=True)
        (attn): Attention(
          (q): Linear(in_features=1024, out_features=1024, bias=True)
          (k): Linear(in_features=1024, out_features=1024, bias=True)
          (v): Linear(in_features=1024, out_features=1024, bias=True)
          (attn_drop): Dropout(p=0.0, inplace=False)
          (proj): Linear(in_features=1024, out_features=1024, bias=True)
          (proj_drop): Dropout(p=0.0, inplace=False)
        )
        (mlp): MLP(
          (fc1): Linear(in_features=1024, out_features=4096, bias=True)
          (act): GELU(approximate='none')
          (fc2): Linear(in_features=4096, out_features=1024, bias=True)
          (drop): Dropout(p=0.0, inplace=False)
        )
      )
    )
    (norm): LayerNorm((1024,), eps=1e-06, elementwise_affine=True)
    (head): Linear(in_features=1024, out_features=1280, bias=False)
  )
)
2024-11-18 21:16:04,279 - root - INFO - Scaffolding memory high watermark: 10.2352294921875 GB.
2024-11-18 21:16:04,279 - root - INFO - Starting Training Loop...
[rank2]: Traceback (most recent call last):
[rank2]:   File "/global/u1/t/train993/sc24-dl-tutorial/train_mp.py", line 447, in <module>
[rank2]:     train(params, args, local_rank, world_rank, world_size)
…
